Protein/server/drug_target_model.pth (torch, 765548 bytes, 5 tensors)

fc1.weight f4 [128, 1424]
0	0x3ca03a87	0.019559158
1	0x3cc5bda9	0.024138289
2	0x3bc4c81c	0.0060053
3	0x3c0c0e6a	0.008548358
4	0xbc24d818	-0.010061286
5	0xbca89a35	-0.020581344
6	0x3c2874b2	0.010281729
7	0xb9bcb080	-0.00035989657
8	0x3c7400ba	0.014892751
9	0xbb80401c	-0.0039138924
10	0xbc27121b	-0.010197188
11	0x3b3bbbc8	0.0028645862
12	0xbcb0e733	-0.02159462
13	0xbc532413	-0.012887019
14	0xbbe2f610	-0.0069263056
15	0x3aa08090	0.0012245346
16	0x3cd1d6b9	0.025615083
17	0x3c495afa	0.012289757
18	0xbc60eac8	-0.013727851
19	0xbca22eb3	-0.019797659
20	0x3aede290	0.0018149186
21	0xbcbeac3a	-0.023275483
22	0x3cc501eb	0.024048766
23	0xbc8b3d7f	-0.016997097
24	0xbbce5ae8	-0.006297458
25	0x3c6dde9a	0.014518404
26	0x3bd5f1d4	0.0065290723
27	0x3b101958	0.0021987762
28	0x3ca1c697	0.019748015
29	0x3c998e53	0.018744623
30	0xbca10f91	-0.019660743
31	0x3beed55c	0.007288618
32	0x3cc66195	0.024216453
33	0xbb9bda88	-0.0047562756
34	0x3caf7453	0.021417772
35	0x3c0159ee	0.007894976
36	0xbcc10a88	-0.023564592
37	0xba284fa0	-0.00064205565
38	0x3c989af1	0.01862857
39	0xbae2eff0	-0.0017313939
40	0xbce4c011	-0.027923616
41	0x3a99cd30	0.0011734124
42	0xbcc51f96	-0.024062913
43	0x3c4e393e	0.01258689
44	0xbcb8550c	-0.022501491
45	0xbc2264da	-0.00991174
46	0x3bc18d0c	0.0059067067
47	0x3c18860a	0.009309301
48	0xbcce39f3	-0.025174117
49	0xbc86eb1a	-0.016469527
50	0x3a284e20	0.0006420333
51	0x3bd65d04	0.00654185
52	0xbc87a36a	-0.016557414
53	0xbb0179a8	-0.001975635
54	0x3caea8fb	0.02132081
55	0xbc82e651	-0.015978964
56	0xbcc9350a	-0.024561424
57	0x3c804906	0.01565982
58	0x3c5f5546	0.013631171
59	0x3c15f786	0.0091532525
60	0xbba75248	-0.0051062442
61	0xbccb6a3a	-0.024830926
62	0x3b3bf190	0.0028677918
63	0x3c0d2742	0.008615317
64	0xbcae2f12	-0.02126268
65	0x3c924097	0.017853064
66	0x3ca628eb	0.020283183
67	0x3cc07388	0.02349259
68	0xbbdfff28	-0.006835837
69	0xbb080e96	-0.0020760647
70	0x3bc4186c	0.0059843566
71	0x3c482cd6	0.012217721
72	0x3bbc725c	0.0057509374
73	0x3cbb0b61	0.022832574
74	0x3bb62d94	0.0055596326
75	0x3bca8bf4	0.0061812345
76	0x3c8241dd	0.015900547
77	0xbcb6f879	-0.022335278
78	0xbc972825	-0.01845176
79	0xbc9b01bd	-0.018921727
80	0xbcc90a31	-0.024540992
81	0xbc1f3c94	-0.009719033
82	0x3cb051c7	0.02152337
83	0x3c04da22	0.008108648
84	0x3af6ef80	0.0018839687
85	0xbc993af7	-0.018704874
86	0xbc85a44a	-0.01631369
87	0x3c4638d1	0.012098507
88	0xbcb65119	-0.022255467
89	0x3caabd9f	0.020842372
90	0x3cb264ad	0.021776522
91	0x3c441682	0.011968257
92	0xbc8388a6	-0.01605637
93	0xbbb7a4e0	-0.0056043714
94	0x3b445240	0.0029956251
95	0xbcc951da	-0.024575163
96	0x3c2a3ca3	0.0103904335
97	0x3b977e70	0.004623227
98	0x3bfa7a24	0.007643955
99	0x3c2b3eca	0.010451982
100	0xbc3141cb	-0.010818909
101	0xba70aa40	-0.00091806427
102	0xbca1f1e0	-0.019768655
103	0x3cca14c3	0.024668103
104	0xbcc52c81	-0.024069073
105	0x39ce5b40	0.00039359368
106	0xbc9008c8	-0.017582312
107	0xbbf1881b	-0.0073709614
108	0xbc6be79e	-0.014398484
109	0x3ccca153	0.02497927
110	0x3caa725d	0.020806486
111	0xbc0ad0d0	-0.008472636
112	0xbcd57bb4	-0.026059963
113	0xbca0783f	-0.019588588
114	0x3ba2b36c	0.0049652364
115	0xbbab5cd0	-0.00522957
116	0x3c98519f	0.018593607
117	0x3cc11167	0.023567868
118	0xbcd1b3c7	-0.02559842
119	0x3af2de30	0.0018529352
120	0xbcafdbb2	-0.021467064
121	0xbb902060	-0.0043983907
122	0xba078000	-0.0005168915
123	0x3c408bca	0.011752078
124	0x3c3e16d1	0.01160212
125	0xbab58df0	-0.0013851505
126	0xbc15e82a	-0.0091495905
127	0xba583320	-0.00082473643
128	0xbcb506f5	-0.022098044
129	0xbcde88d8	-0.027164862
130	0xbc5747ea	-0.013139704
131	0xbcd7ad97	-0.026327891
132	0x3b852f64	0.0040644873
133	0x3c08db26	0.00835303
134	0x3cc727d9	0.024310993
135	0xbae7e920	-0.0017693378
136	0xbcc15888	-0.023601785
137	0x3b9e3601	0.004828215
138	0x3b729550	0.0037015267
139	0xbc82b408	-0.015954986
140	0x3ca33b91	0.019925864
141	0xbad09530	-0.0015913602
142	0x3b25e998	0.0025316235
143	0xbc41c835	-0.011827518
144	0x3ca54abd	0.02017724
145	0x3cb21999	0.021740722
146	0xbc42f874	-0.011900056
147	0x3cb3666b	0.021899423
148	0x3cb62f39	0.022239314
149	0xba2ea739	-0.00066624914
150	0x3c626792	0.013818638
151	0xbb447128	-0.0029974673
152	0xbc430741	-0.011903585
153	0xbc639629	-0.013890781
154	0xbbbf65e0	-0.005841002
155	0xbca680f8	-0.020325169
156	0x3ba6e1dc	0.0050928425
157	0xbc41a03b	-0.011817987
158	0x3c23d466	0.00999937
159	0x3ba9429c	0.005165411
160	0x3c0a1b37	0.00842934
161	0x3cd7839b	0.026307872
162	0x3c1888ee	0.00930999
163	0x3b15bff0	0.002285
164	0xbc93880b	-0.018009206
165	0xbcc1c7b4	-0.023654796
166	0x3b789ef0	0.003793653
167	0x3cd4b8e5	0.02596707
168	0x3be42e84	0.006963553
169	0x3baccdd4	0.00527356
170	0x3c9cdd21	0.019148411
171	0x3ab948d0	0.001413608
172	0xbcbf3483	-0.02334047
173	0x3c0af6fa	0.008481735
174	0x3cb8e271	0.022568913
175	0xbc3e8e9d	-0.011630681
176	0xbc33c05d	-0.010971156
177	0xbcd6bbe0	-0.026212633
178	0xbca64a7a	-0.020299185
179	0x3c1da831	0.0096226195
180	0xbc84235a	-0.016130138
181	0x3b26e640	0.002546683
182	0xbc9229f4	-0.01784227
183	0xbc64775c	-0.013944473
184	0xbcb43ad9	-0.022000717
185	0xbc8e1ef2	-0.01734874
186	0x3b075598	0.0020650383
187	0xbc13a832	-0.009012269
188	0x3b9a8adc	0.0047162604
189	0x3c05cf82	0.0081671495
190	0xbb27f130	-0.0025625937
191	0xbc7175e2	-0.014737578
192	0x3ba859dc	0.005137665
193	0xbb87f838	-0.004149463
194	0x3c9bda7d	0.019025082
195	0x3c166876	0.009180179
196	0xbca1a89c	-0.01973372
197	0x3b348fe8	0.0027551595
198	0xbcad5ed0	-0.021163374
199	0xbc2ba9f6	-0.010477534
200	0x3c674e0e	0.014117731
201	0xbc98cbce	-0.01865187
202	0x3c19c252	0.0093847085
203	0x3cbe5523	0.023233956
204	0xbc4ff3a0	-0.012692362
205	0x3c9cbad5	0.019132057
206	0x3c9920ed	0.018692458
207	0xbc56c7f6	-0.013109198
208	0x3b9a3390	0.0047058538
209	0xbb0686fe	-0.002052724
210	0xbc964f32	-0.01834831
211	0xbba6c3bc	-0.0050892513
212	0x3c1b75d2	0.00948854
213	0x3c8a02ab	0.016846975
214	0xb97ffb80	-0.00024412386
215	0xbc679938	-0.014135651
216	0x3ccac091	0.024750026
217	0xbbcb3824	-0.006201761
218	0xbb7783e8	-0.0037767831
219	0x3a3503e0	0.00069051795
220	0x3ccd5957	0.025067015
221	0xbce90708	-0.028445736
222	0x3ccefeab	0.02526792
223	0xbbc41a44	-0.0059845764
224	0x3bc59fa7	0.006030995
225	0xbc4cc7a7	-0.012498773
226	0x3a8ed670	0.0010897648
227	0xbcb3703c	-0.021904103
228	0xbc9f097c	-0.019413702
229	0xbc8ca71e	-0.017169531
230	0x3b439e10	0.0029848851
231	0xbbfe2cd0	-0.007756807
232	0xbcb775b3	-0.02239499
233	0x3cc95851	0.024578245
234	0x3cd5d6ff	0.026103495
235	0x3bddc324	0.0067676473
236	0xbc6e42af	-0.014542266
237	0xbca88f9a	-0.020576287
238	0xbc6162f2	-0.013756501
239	0x3c32dad6	0.010916432
240	0x3c3e1a8e	0.011603011
241	0xbc4a8a98	-0.012362145
242	0x3c18471e	0.009294299
243	0x3cad43e7	0.021150542
244	0xbbe49c30	-0.006976627
245	0x3c784f6a	0.015155653
246	0x3b8d6ab8	0.0043157004
247	0x3ca7d75d	0.020488435
248	0x3aa37d40	0.001247324
249	0x3c8e5bf7	0.017377837
250	0x3bf5b3cc	0.00749824
251	0xbc4a5939	-0.012350374
252	0xbccef65e	-0.025263961
253	0x3c38741a	0.0112581495
254	0xbca6d41a	-0.02036481
255	0x3cfd344b	0.030908724

fc1.bias f4 [128]
0	0x3bd72b2d	0.0065664263
1	0xbcd5560c	-0.026042007
2	0x3c8da78e	0.01729181
3	0x3cb878f1	0.022518607
4	0xbc2526e8	-0.010080077
5	0x3ba25f5a	0.0049552144
6	0xbca5aa50	-0.020222813
7	0x3c2eb13c	0.010662373
8	0xba060830	-0.00051129144
9	0x3c5f91c0	0.013645589
10	0x3ca0fbc6	0.019651305
11	0x3ce0f18a	0.027458925
12	0x3cd9a349	0.026567118
13	0xbc177700	-0.00924468
14	0x3c653654	0.013990004
15	0x3a4c97e1	0.0007804614
16	0xbc8ecd68	-0.01743193
17	0x3cd52652	0.02601925
18	0xbcadb79a	-0.021205712
19	0x3c3ba54f	0.011452987
20	0xbc3d1db9	-0.011542731
21	0xbcab2f40	-0.020896554
22	0x3c287356	0.0102814045
23	0x3cb47edd	0.02203315
24	0xbc42c440	-0.01188761
25	0x3a8363f0	0.001002429
26	0xbcc1f382	-0.023675684
27	0xbba4912c	-0.0050221886
28	0x3c195b68	0.009360172
29	0xbca7071a	-0.020389128
30	0xbb16480e	-0.0022931132
31	0xbb82d29b	-0.0039923913
32	0x3c0f984c	0.008764338
33	0x3ca77f1c	0.020446353
34	0xbbf512f0	-0.007479064
35	0xbc1d72f6	-0.009609928
36	0xbbf645ce	-0.0075156456
37	0x3ccf1015	0.025276223
38	0xbbbf3f6d	-0.0058364184
39	0x3cab01a4	0.020874806
40	0xbc1dc885	-0.009630327
41	0xbc88cbf6	-0.016698819
42	0xbc5811d8	-0.013187848
43	0x3cab8c93	0.020941054
44	0x3cc951e2	0.024575178
45	0xbcd1f65c	-0.025630169
46	0x3cadc4c3	0.021211987
47	0xbcd20724	-0.02563817
48	0x3c5a7ec6	0.013335889
49	0xbbd645de	-0.0065390905
50	0x3c25cd8b	0.010119806
51	0xbcb9843e	-0.022646066
52	0x3c650228	0.013977565
53	0xbc20a574	-0.009805072
54	0x3c622fee	0.013805373
55	0xbc522829	-0.012826958
56	0xbbc655ed	-0.0060527236
57	0xbc627055	-0.013820727
58	0x3c2b00f8	0.010437243
59	0x3d08179c	0.03322564
60	0x3cbcd975	0.02305291
61	0x3ac90e2a	0.0015339304
62	0xbbc100f3	-0.0058900057
63	0x3cc4c9f0	0.024022073
64	0x3cedd653	0.029032862
65	0x3d123640	0.035696268
66	0x3ae1508c	0.0017190143
67	0x3ca65f66	0.020309161
68	0x3cb41d90	0.021986753
69	0xbbf540ee	-0.007484547
70	0x3d10e6b2	0.03537626
71	0xbcd54c94	-0.026037492
72	0xbb1dc25e	-0.002407215
73	0xbc95e8cb	-0.01829948
74	0x394d4a80	0.00019578077
75	0x3c45c7d3	0.012071568
76	0xbcb6b483	-0.022302872
77	0xbc88e088	-0.016708627
78	0x3cfae3d8	0.030626222
79	0xbd00eb17	-0.0314742
80	0x3b8569cc	0.00407145
81	0x3ae1aa52	0.0017216897
82	0xbcd1a9a6	-0.02559359
83	0x3c7d3c59	0.0154562825
84	0x3b6988d4	0.0035634534
85	0xbc5b6e46	-0.01339299
86	0x3b16aaf5	0.0022990082
87	0x3ce52842	0.027973298
88	0xbca27805	-0.01983262
89	0x3c908e61	0.017646017
90	0x3cba949b	0.022775939
91	0xbb48b9b6	-0.003062827
92	0x3b207266	0.002448225
93	0xbab80cb0	-0.0014041867
94	0x3c2a980e	0.010412229
95	0x3b0e4476	0.0021708286
96	0xbb6a281d	-0.0035729476
97	0x3c63385a	0.013868416
98	0xbc0b378c	-0.00849713
99	0xbc9cf8df	-0.01916164
100	0x3c6d5d60	0.014487594
101	0xbc0ec8aa	-0.008714834
102	0x3b76d914	0.003766601
103	0xbc9de836	-0.019275766
104	0xbb1b3e23	-0.002368816
105	0x3c8a404a	0.016876359
106	0x3ca635ec	0.020289384
107	0x3c1c0ef2	0.009525048
108	0x3c4ce543	0.012505832
109	0xbcc8baae	-0.024503078
110	0xbc10f79f	-0.0088481
111	0xbc66bba8	-0.014082827
112	0x3ca5dddc	0.020247392
113	0xbc922e31	-0.017844291
114	0x3c663a89	0.014052042
115	0x3cc356fc	0.023845188
116	0xbc973c20	-0.018461287
117	0xbc2b8cc7	-0.010470576
118	0xbbd34f43	-0.0064486577
119	0xbc87dc01	-0.016584398
120	0xbc590979	-0.013246887
121	0x3c46a2fa	0.012123818
122	0xbcd18a8a	-0.025578756
123	0x3b23f728	0.0025019143
124	0xbc79967d	-0.015233633
125	0x3c98dca8	0.018659905
126	0x3bbaea2c	0.005704185
127	0x3c74245c	0.014901247

fc2.weight f4 [64, 128]
0	0x3c571a20	0.013128787
1	0xbc1a4200	-0.00941515
2	0x3d55454e	0.052068047
3	0x3d89532d	0.06705318
4	0x3d8c87f7	0.06861871
5	0xbda42c4e	-0.08016263
6	0x3d1089a8	0.03528753
7	0xbc21f688	-0.009885438
8	0x3d9a12e5	0.07523135
9	0xbcacb034	-0.021080114
10	0x3c8e40b4	0.017364837
11	0x3cc268f0	0.023731679
12	0xbca1b8d0	-0.019741446
13	0x3cad5650	0.021159321
14	0xbdb2ad50	-0.08724463
15	0x3d24e916	0.04026135
16	0xbb5fb8a0	-0.0034137145
17	0xbc508300	-0.012726545
18	0x3c8680f0	0.016418904
19	0x3daa8c8f	0.08327591
20	0x3da7085d	0.08155892
21	0x3d6a8f36	0.057265483
22	0xbd63b330	-0.05559081
23	0x3a9aaf80	0.0011801571
24	0x394f0400	0.00019742548
25	0x3d705b82	0.05868102
26	0xbd6c4825	-0.05768599
27	0x3d52cd32	0.05146522
28	0xbd3d3635	-0.046194274
29	0x3b679c20	0.003534086
30	0xbcd7e042	-0.026352052
31	0x3d55ac1e	0.052166097
32	0xbc696820	-0.014246017
33	0xbdac10b8	-0.08401626
34	0x3d6af3b6	0.057361327
35	0xbb3be620	-0.00286711
36	0x3cdbf3a4	0.026849575
37	0xbd9aaebb	-0.075528584
38	0xbd03f7ea	-0.03221885
39	0xbd7ea390	-0.062167704
40	0x3d8aee4f	0.06783735
41	0xbda6a9cd	-0.08137856
42	0xbd837759	-0.06419248
43	0xbc56b7e0	-0.013105363
44	0xbda43b9a	-0.080191806
45	0xbd8cddbd	-0.06878231
46	0xbca6b584	-0.020350225
47	0xbd8971da	-0.067111686
48	0xbd9516b8	-0.07279724
49	0xbce03436	-0.027368646
50	0xbd49330d	-0.04912095
51	0xbd1ff64f	-0.039053258
52	0x3d368a62	0.044565566
53	0x3c559790	0.013036624
54	0x3d4db536	0.050221644
55	0xbc9a8104	-0.018860348
56	0x3ce4d6e0	0.027934492
57	0x3cbadf2c	0.022811495
58	0xbd61dd12	-0.05514247
59	0x3bb98900	0.0056620836
60	0x3c2cbc28	0.010542907
61	0xbc971470	-0.018442363
62	0xbd70f916	-0.058831297
63	0x3c92623c	0.017869107
64	0xbdabaff9	-0.083831735
65	0x3d869d47	0.06572967
66	0xbd6abce5	-0.05730905
67	0xbcbc91c4	-0.023018725
68	0xbc220300	-0.009888411
69	0x3d6bb9e2	0.05755032
70	0x3d29b63e	0.041433565
71	0xbd5b12d9	-0.05348477
72	0xbcac44e0	-0.021028936
73	0xbb9f8e20	-0.0048692375
74	0x3d9a4ee3	0.07534578
75	0xbbf255b0	-0.0073954687
76	0x3cf3299c	0.029682927
77	0xbd938a35	-0.07204095
78	0x3da9960b	0.082805716
79	0x3db2f3a9	0.08737881
80	0x3d8aca27	0.06776839
81	0xbd161dc3	-0.036649477
82	0x3d668ff6	0.056289636
83	0x3b9ac580	0.004723251
84	0xbd19761a	-0.037466146
85	0x3cd168cc	0.025562666
86	0x3d5c389a	0.053764917
87	0x3c27e338	0.010247044
88	0x3d93f861	0.07225109
89	0xbbfa3f00	-0.0076369047
90	0x3d74e3ca	0.05978755
91	0xbd59ad4b	-0.05314378
92	0x3d7a5ee2	0.061125644
93	0x3c2e5ba0	0.010641962
94	0xbd6fac6a	-0.058514036
95	0x39f7c200	0.00047256052
96	0xbda537ec	-0.08067307
97	0x3dac4659	0.08411855
98	0xbd8ddfdb	-0.06927463
99	0x3d4f54e6	0.050618075
100	0x3c8fd180	0.017555952
101	0xbd28acde	-0.041180484
102	0x3cb6ea54	0.022328533
103	0xbcdc7d4e	-0.026915219
104	0xbda353b4	-0.079749495
105	0x3c80d364	0.015725799
106	0xbd6e7304	-0.058215156
107	0xbd891234	-0.06692925
108	0x3d9b57b7	0.0758509
109	0x3d9469e5	0.0724676
110	0x3d24b3ce	0.040210538
111	0xbcb3f370	-0.021966666
112	0x3da8d177	0.08243077
113	0xbc9ef1e4	-0.019402452
114	0x3d9eb267	0.07748871
115	0xbbfa29f0	-0.007634394
116	0xbc959e40	-0.018263936
117	0xbd99fa48	-0.075184405
118	0xbd5e7ce0	-0.05431831
119	0xbd19942d	-0.037494827
120	0x3c7746e8	0.015092589
121	0xbc778358	-0.015106998
122	0x3d8b3ea9	0.06799061
123	0xbd6bed86	-0.057599567
124	0x3d852b4d	0.065023996
125	0xbd83df5e	-0.06439088
126	0x3c1c9088	0.009555943
127	0xbc47f428	-0.0122042075
128	0x3d67028e	0.05639892
129	0xbdabbd48	-0.08385712
130	0xbd73de3f	-0.059538122
131	0xbd9dacea	-0.07698996
132	0x3cb8407c	0.022491686
133	0xbc9a1d1c	-0.018812709
134	0xbcffecc2	-0.031240825
135	0xbcc9fa04	-0.02465535
136	0xbbe36650	-0.006939687
137	0xbc08ece0	-0.008357257
138	0xbd7756c8	-0.060385495
139	0xbb2d8900	-0.0026479363
140	0xbdaa377d	-0.08311365
141	0xbd3d39f1	-0.046197835
142	0xbd9e9dc1	-0.07744933
143	0x3c323158	0.010876022
144	0x3c42b260	0.011883348
145	0x3c12dd68	0.00896392
146	0x3db49b51	0.08818687
147	0x3cd462e4	0.025926061
148	0xbd62f90a	-0.055413283
149	0xbd0868cf	-0.03330308
150	0xbd86f9df	-0.06590628
151	0xbd8089c4	-0.06276277
152	0x3d8b44b7	0.06800216
153	0x3d9bded5	0.07610861
154	0xbd9391d5	-0.0720555
155	0xbd62053e	-0.05518078
156	0xbda1f207	-0.07907491
157	0x3c0f5628	0.008748569
158	0x3c23f9a0	0.010008246
159	0x37d8a000	2.5823712e-05
160	0x3caf95bc	0.021433704
161	0xbd0c6330	-0.03427428
162	0xbd466567	-0.04843655
163	0xbd54f79c	-0.05199395
164	0x3cd01408	0.025400177
165	0x3da41899	0.08012504
166	0x3c91c4b8	0.017793998
167	0xbd9519bf	-0.07280301
168	0x3d80b325	0.06284169
169	0x3d022fb6	0.031783782
170	0x3d2d48ea	0.042305864
171	0x3c8867c4	0.016651042
172	0x3da1b075	0.07894985
173	0x3da621a1	0.08111883
174	0x3c151db8	0.009101324
175	0xbd05b252	-0.032640763
176	0x3d8225ad	0.06354842
177	0xbccb1388	-0.024789587
178	0xbc06d168	-0.008228637
179	0x3d8ce34f	0.06879293
180	0xbdad16cd	-0.084516145
181	0x3d52dbda	0.051479198
182	0x3d4f141a	0.05055628
183	0x3d88a737	0.06672519
184	0x3d5a422e	0.05328577
185	0x3cbd13c8	0.023080721
186	0xbc9a6aa8	-0.018849686
187	0x3d2332ee	0.039843492
188	0xbd366960	-0.044534087
189	0x3ca1d760	0.01975602
190	0x3d843d07	0.064569525
191	0xbd884b42	-0.06654979
192	0xbd3258d8	-0.04354176
193	0x3d97fcc9	0.07421262
194	0xbd59e911	-0.053200785
195	0x3d8640f7	0.0655536
196	0x3d85b9f9	0.06529612
197	0xbd7ee15a	-0.06222663
198	0x3d33fa3e	0.04393982
199	0x3d0c48de	0.03424918
200	0x3d6e5a86	0.0581918
201	0xbd66b2f3	-0.056323003
202	0xba3a3e00	-0.00071045756
203	0xbd664983	-0.05622245
204	0x3dac5f8f	0.08416664
205	0x3c97feec	0.018554173
206	0x3d9ad6d7	0.07560509
207	0xbd212444	-0.039341226
208	0x3caf3a24	0.021390028
209	0xbca0ede0	-0.019644678
210	0x3d42d50a	0.04756645
211	0x3d8fdb77	0.070242815
212	0xbd509191	-0.050920073
213	0x3d41fab2	0.047358222
214	0xbcd00024	-0.025390692
215	0xbd85a3a0	-0.065253496
216	0xbdac3d03	-0.084100746
217	0x3d9e3be5	0.07726268
218	0x3cf8d478	0.03037475
219	0xbd7948ba	-0.060860373
220	0x3cb5d358	0.022195503
221	0x3d7a8d56	0.061169945
222	0xbd6217ed	-0.0551986
223	0x3da04bb5	0.0782694
224	0xbb3a4480	-0.0028422177
225	0x3d189c6e	0.037258558
226	0x3a332f80	0.0006835386
227	0x3d8da777	0.06916707
228	0x3d8a487b	0.06752106
229	0x3c5c44f8	0.013444178
230	0x3bb27960	0.005446598
231	0xbd244cb6	-0.04011222
232	0xbd801f86	-0.062560126
233	0xbd4553ee	-0.048175745
234	0x3d41490a	0.047188796
235	0xbdb4e68f	-0.08833038
236	0x3d8d0921	0.06886507
237	0xbd310bad	-0.043224026
238	0xbb8da520	-0.004322663
239	0xbd49d023	-0.04927076
240	0x3ba33870	0.004981093
241	0xbd40f8e6	-0.047112368
242	0x3c868020	0.016418517
243	0xbd3c3fc5	-0.045959253
244	0x3d7429c6	0.05961015
245	0x3d44c896	0.048042856
246	0x3d2ea63a	0.042638995
247	0xbdb36bd5	-0.08760802
248	0xbc78ce28	-0.01518587
249	0x3ca2e0a8	0.019882515
250	0xbc79e7d8	-0.01525303
251	0x3d80601b	0.06268331
252	0xbd453d2b	-0.048154037
253	0xbdaefe35	-0.0854458
254	0xbdaf6d7c	-0.08565804
255	0x3d37449e	0.044743173

fc2.bias f4 [64]
0	0xbda86ff6	-0.0822448
1	0xbda1a757	-0.07893246
2	0x3d12eb39	0.035868857
3	0x3d8ec248	0.0697065
4	0x3cd925d3	0.026507294
5	0xbd2c8890	-0.042122424
6	0xbda3cb1d	-0.07997725
7	0xbd23719c	-0.03990327
8	0x3d324770	0.04352516
9	0x3cf85d21	0.030317845
10	0xbd698584	-0.057012096
11	0x3d479656	0.048727356
12	0x3c8fa41d	0.01753431
13	0x3db58cb5	0.08864728
14	0x3da83618	0.082134426
15	0xbd21e659	-0.039526317
16	0xbc985a2c	-0.018597685
17	0x3b0151d5	0.0019732614
18	0x3ce6f81b	0.028194478
19	0x3d9ed4af	0.0775541
20	0xbd5ae9d3	-0.05344565
21	0xbd42d2fd	-0.047564495
22	0xbba43d5d	-0.005012198
23	0xbdac1a03	-0.08403399
24	0x3cd9509e	0.0265277
25	0x3c71280c	0.014719021
26	0x3d1a6e7b	0.03770302
27	0xbcb662c0	-0.022263885
28	0xbd9d1b8e	-0.07671271
29	0xbd276a67	-0.040872958
30	0xbd875033	-0.06607094
31	0x3d834e48	0.06411415
32	0x3d263c33	0.040584754
33	0xbcdec629	-0.0271941
34	0xbd3b394f	-0.04570895
35	0x3c3621ec	0.011116486
36	0xbd89a8d1	-0.06721652
37	0xbdb88db7	-0.09011405
38	0xbd439603	-0.047750484
39	0xbc81c6a0	-0.015841782
40	0xbd493e79	-0.049131844
41	0xbd0f7990	-0.03502804
42	0x3cff0549	0.03113045
43	0xba109b50	-0.00055163074
44	0xbd4d7959	-0.050164554
45	0x3d6fa9f5	0.058511693
46	0x3d2bb5fd	0.041921604
47	0x3d5939f7	0.053033795
48	0x3ba64df8	0.0050752126
49	0x3da27b47	0.079336695
50	0xbd5124f4	-0.051060632
51	0x3d90d8a7	0.07072573
52	0x3d86def4	0.06585494
53	0x3cb86546	0.022509228
54	0x3aca25bf	0.0015422626
55	0x3d8ab19e	0.06772159
56	0x3d429411	0.04750449
57	0x3d877041	0.066132076
58	0x3dbc619a	0.091983035
59	0x3d72002c	0.059082195
60	0x3db1ea81	0.08687306
61	0xbc1e53f8	-0.009663574
62	0xbd3855cf	-0.04500371
63	0x3d3f1c3b	0.046657782

fc3.weight f4 [1, 64]
0	0xbda8af4a	-0.08236559
1	0x3d3cd178	0.046098202
2	0x3de0e639	0.109814115
3	0xbdadb7d4	-0.08482328
4	0x3dcca51a	0.09992428
5	0xbccf5710	-0.02531007
6	0x3d83a7bd	0.06428478
7	0xbcc95091	-0.02457455
8	0xbdcd65ab	-0.10029157
9	0xbcf53dd4	-0.029936709
10	0xbd44e6c7	-0.04807165
11	0x3cde5d18	0.027144
12	0x3bac06dd	0.0052498416
13	0x3da0174b	0.07816943
14	0x3df26d68	0.11837274
15	0x3d32858a	0.043584384
16	0x3d887304	0.066625625
17	0x3d7d5a8a	0.061853923
18	0x3ccc34b1	0.024927469
19	0x3de288fd	0.11061285
20	0x3dbbc1fc	0.09167859
21	0x3ce74112	0.02822927
22	0xbd780c4f	-0.060558613
23	0x3d2b371b	0.0418006
24	0x3b3b7421	0.0028603154
25	0xbd8c0617	-0.06837099
26	0xbd8dceee	-0.06924234
27	0xbdd369ce	-0.10322915
28	0x3df453ce	0.11930047
29	0xbde0a1b0	-0.109683394
30	0xbdb7682c	-0.08955416
31	0x3d45c2bd	0.04828142
32	0x3db8dca3	0.09026458
33	0x3d6e59d6	0.058191143
34	0x3d36e0e4	0.044648066
35	0xbdf26ca9	-0.118371315
36	0x3d8bf61d	0.06834052
37	0xbd4f7826	-0.05065169
38	0x3df3dc77	0.11907285
39	0x3d1559dd	0.036462653
40	0x3daa17f1	0.08305348
41	0xbdcad8b5	-0.09904615
42	0x3ca7cbe2	0.020482961
43	0x3c6095ec	0.013707619
44	0x3dd73815	0.10508744
45	0xbd63d540	-0.055623293
46	0xbc8d596e	-0.017254557
47	0x3d99d93a	0.07512136
48	0xbd989126	-0.0744956
49	0xbd5c2e11	-0.05375487
50	0x3db10082	0.08642675
51	0x3d7b0de7	0.061292555
52	0x3cdb9de2	0.026808683
53	0xbd5b529b	-0.053545576
54	0x3dfdd500	0.12394142
55	0xbaf12307	-0.001839728
56	0xbddac941	-0.106829174
57	0x3ce5ff4f	0.028075842
58	0x3ddc7044	0.107636005
59	0xbe0714ce	-0.1319153
60	0x3dec942a	0.115516976
61	0x3d330314	0.043704107
62	0x3dfd9bde	0.12383245
63	0x3bfc3de5	0.007697808
